Training Odin_v2
Retriving videos from file
Retriving videos from file
Found 13332 training Deepfake Videos
Found 13164 training Pristine Videos
Found 1482 validation Deepfake Videos
Found 1464 validation Pristine Videos
_________________________________________________________________
Layer (type)                 Output Shape              Param #   
=================================================================
input_1 (InputLayer)         (None, 3, 100, 100, 3)    0         
_________________________________________________________________
conv3d_1 (Conv3D)            (None, 1, 98, 98, 8)      656       
_________________________________________________________________
conv3d_2 (Conv3D)            (None, 1, 96, 96, 16)     1168      
_________________________________________________________________
max_pooling3d_1 (MaxPooling3 (None, 1, 48, 48, 16)     0         
_________________________________________________________________
conv3d_3 (Conv3D)            (None, 1, 46, 46, 32)     4640      
_________________________________________________________________
max_pooling3d_2 (MaxPooling3 (None, 1, 23, 23, 32)     0         
_________________________________________________________________
batch_normalization_1 (Batch (None, 1, 23, 23, 32)     128       
_________________________________________________________________
flatten_1 (Flatten)          (None, 16928)             0         
_________________________________________________________________
dense_1 (Dense)              (None, 32)                541728    
_________________________________________________________________
dropout_1 (Dropout)          (None, 32)                0         
_________________________________________________________________
leaky_re_lu_1 (LeakyReLU)    (None, 32)                0         
_________________________________________________________________
dropout_2 (Dropout)          (None, 32)                0         
_________________________________________________________________
dense_2 (Dense)              (None, 2)                 66        
=================================================================
Total params: 548,386
Trainable params: 548,322
Non-trainable params: 64
_________________________________________________________________
None
Train on 26496 samples, validate on 2946 samples
Epoch 1/25
 - 579s - loss: 0.7970 - acc: 0.7717 - val_loss: 0.4538 - val_acc: 0.8842
Epoch 2/25
 - 582s - loss: 0.4874 - acc: 0.8237 - val_loss: 0.3386 - val_acc: 0.9250
…
