Training Providence.
Retriving videos from file
Found 1926 Deepfakes
Retriving videos from file
Found 1260 Pristine Videos
_________________________________________________________________
Layer (type)                 Output Shape              Param #   
=================================================================
input_1 (InputLayer)         (None, 20, 100, 100, 3)   0         
_________________________________________________________________
conv3d_1 (Conv3D)            (None, 18, 98, 98, 8)     656       
_________________________________________________________________
conv3d_2 (Conv3D)            (None, 16, 96, 96, 16)    3472      
_________________________________________________________________
max_pooling3d_1 (MaxPooling3 (None, 8, 48, 48, 16)     0         
_________________________________________________________________
conv3d_3 (Conv3D)            (None, 6, 46, 46, 32)     13856     
_________________________________________________________________
conv3d_4 (Conv3D)            (None, 4, 44, 44, 64)     55360     
_________________________________________________________________
max_pooling3d_2 (MaxPooling3 (None, 2, 22, 22, 64)     0         
_________________________________________________________________
batch_normalization_1 (Batch (None, 2, 22, 22, 64)     256       
_________________________________________________________________
flatten_1 (Flatten)          (None, 61952)             0         
_________________________________________________________________
dense_1 (Dense)              (None, 2048)              126879744 
_________________________________________________________________
dropout_1 (Dropout)          (None, 2048)              0         
_________________________________________________________________
dense_2 (Dense)              (None, 512)               1049088   
_________________________________________________________________
dropout_2 (Dropout)          (None, 512)               0         
_________________________________________________________________
dense_3 (Dense)              (None, 2)                 1026      
=================================================================
Total params: 128,003,458
Trainable params: 128,003,330
Non-trainable params: 128
_________________________________________________________________
None
Epoch 1/10
 - 1137s - loss: 0.9509 - acc: 0.8271
Epoch 2/10
 - 1081s - loss: 0.3071 - acc: 0.9204
Epoch 3/10
 - 1072s - loss: 0.1674 - acc: 0.9492
Epoch 4/10
 - 1102s - loss: 0.1202 - acc: 0.9683
…
