Training Odin_v2
Retriving videos from file
Retriving videos from file
Found 13332 training Deepfake Videos
Found 13164 training Pristine Videos
Found 1482 validation Deepfake Videos
Found 1464 validation Pristine Videos
_________________________________________________________________
Layer (type)                 Output Shape              Param #   
=================================================================
input_1 (InputLayer)         (None, 3, 100, 100, 3)    0         
_________________________________________________________________
conv3d_1 (Conv3D)            (None, 1, 98, 98, 8)      656       
_________________________________________________________________
conv3d_2 (Conv3D)            (None, 1, 96, 96, 16)     1168      
_________________________________________________________________
max_pooling3d_1 (MaxPooling3 (None, 1, 48, 48, 16)     0         
_________________________________________________________________
conv3d_3 (Conv3D)            (None, 1, 46, 46, 32)     4640      
_________________________________________________________________
max_pooling3d_2 (MaxPooling3 (None, 1, 23, 23, 32)     0         
_________________________________________________________________
batch_normalization_1 (Batch (None, 1, 23, 23, 32)     128       
_________________________________________________________________
flatten_1 (Flatten)          (None, 16928)             0         
_________________________________________________________________
dense_1 (Dense)              (None, 32)                541728    
_________________________________________________________________
dropout_1 (Dropout)          (None, 32)                0         
_________________________________________________________________
leaky_re_lu_1 (LeakyReLU)    (None, 32)                0         
_________________________________________________________________
dropout_2 (Dropout)          (None, 32)                0         
_________________________________________________________________
dense_2 (Dense)              (None, 2)                 66        
=================================================================
Total params: 548,386
Trainable params: 548,322
Non-trainable params: 64
_________________________________________________________________
None
Train on 26496 samples, validate on 2946 samples
Epoch 1/30
 - 574s - loss: 0.8029 - acc: 0.7704 - val_loss: 0.4428 - val_acc: 0.8618
Epoch 2/30
 - 572s - loss: 0.4463 - acc: 0.8381 - val_loss: 0.3394 - val_acc: 0.8907
…
 - 575s - loss: 0.1353 - acc: 0.9542 - val_loss: 0.1520 - val_acc: 0.9582
Epoch 27/30
 - 575s - loss: 0.1381 - acc: 0.9529 - val_loss: 0.1310 - val_acc: 0.9671
Epoch 28/30
 - 575s - loss: 0.1367 - acc: 0.9555 - val_loss: 0.1589 - val_acc: 0.9606
Epoch 29/30
 - 575s - loss: 0.1340 - acc: 0.9550 - val_loss: 0.2269 - val_acc: 0.9504
Epoch 30/30
 - 575s - loss: 0.1312 - acc: 0.9575 - val_loss: 0.4168 - val_acc: 0.8608
History of Odin_v2 loaded
_________________________________________________________________
Layer (type)                 Output Shape              Param #   
=================================================================
input_1 (InputLayer)         (None, 3, 100, 100, 3)    0         
_________________________________________________________________
conv3d_1 (Conv3D)            (None, 1, 98, 98, 8)      656       
_________________________________________________________________
conv3d_2 (Conv3D)            (None, 1, 96, 96, 16)     1168      
_________________________________________________________________
max_pooling3d_1 (MaxPooling3 (None, 1, 48, 48, 16)     0         
_________________________________________________________________
conv3d_3 (Conv3D)            (None, 1, 46, 46, 32)     4640      
_________________________________________________________________
max_pooling3d_2 (MaxPooling3 (None, 1, 23, 23, 32)     0         
_________________________________________________________________
batch_normalization_1 (Batch (None, 1, 23, 23, 32)     128       
_________________________________________________________________
flatten_1 (Flatten)          (None, 16928)             0         
_________________________________________________________________
dense_1 (Dense)              (None, 32)                541728    
_________________________________________________________________
dropout_1 (Dropout)          (None, 32)                0         
_________________________________________________________________
leaky_re_lu_1 (LeakyReLU)    (None, 32)                0         
_________________________________________________________________
dropout_2 (Dropout)          (None, 32)                0         
_________________________________________________________________
dense_2 (Dense)              (None, 2)                 66        
=================================================================
Total params: 548,386
Trainable params: 548,322
Non-trainable params: 64
_________________________________________________________________
None
Odin_v2 completed the predictions in 8.26s (356.67ps)
[[1074  408]
 [   2 1462]]
Accuracy: 86.08%
Force train is True, training new network Horus
Training Horus
Retriving videos from file
Retriving videos from file
Found 13332 training Deepfake Videos
Found 13164 training Pristine Videos
Found 1482 validation Deepfake Videos
Found 1464 validation Pristine Videos
_________________________________________________________________
Layer (type)                 Output Shape              Param #   
=================================================================
input_2 (InputLayer)         (None, 3, 100, 100, 3)    0         
_________________________________________________________________
conv3d_4 (Conv3D)            (None, 1, 98, 98, 16)     1312      
_________________________________________________________________
max_pooling3d_3 (MaxPooling3 (None, 1, 49, 49, 16)     0         
_________________________________________________________________
conv3d_5 (Conv3D)            (None, 1, 47, 47, 32)     4640      
_________________________________________________________________
max_pooling3d_4 (MaxPooling3 (None, 1, 23, 23, 32)     0         
_________________________________________________________________
batch_normalization_2 (Batch (None, 1, 23, 23, 32)     128       
_________________________________________________________________
flatten_2 (Flatten)          (None, 16928)             0         
_________________________________________________________________
dense_3 (Dense)              (None, 32)                541728    
_________________________________________________________________
dropout_3 (Dropout)          (None, 32)                0         
_________________________________________________________________
dense_4 (Dense)              (None, 16)                528       
_________________________________________________________________
dropout_4 (Dropout)          (None, 16)                0         
_________________________________________________________________
dense_5 (Dense)              (None, 2)                 34        
=================================================================
Total params: 548,370
Trainable params: 548,306
Non-trainable params: 64
_________________________________________________________________
None
Train on 26496 samples, validate on 2946 samples
Epoch 1/20
 - 558s - loss: 0.4425 - acc: 0.7883 - val_loss: 0.2311 - val_acc: 0.9151
Epoch 2/20
 - 557s - loss: 0.2970 - acc: 0.8719 - val_loss: 0.1552 - val_acc: 0.9470
…
 - 557s - loss: 0.0613 - acc: 0.9809 - val_loss: 0.1166 - val_acc: 0.9749
Epoch 17/20
 - 557s - loss: 0.0554 - acc: 0.9824 - val_loss: 0.1112 - val_acc: 0.9749
Epoch 18/20
 - 557s - loss: 0.0540 - acc: 0.9831 - val_loss: 0.1456 - val_acc: 0.9708
Epoch 19/20
 - 557s - loss: 0.0463 - acc: 0.9851 - val_loss: 0.1288 - val_acc: 0.9766
Epoch 20/20
 - 557s - loss: 0.0482 - acc: 0.9867 - val_loss: 0.1359 - val_acc: 0.9698
History of Horus loaded
_________________________________________________________________
Layer (type)                 Output Shape              Param #   
=================================================================
input_2 (InputLayer)         (None, 3, 100, 100, 3)    0         
_________________________________________________________________
conv3d_4 (Conv3D)            (None, 1, 98, 98, 16)     1312      
_________________________________________________________________
max_pooling3d_3 (MaxPooling3 (None, 1, 49, 49, 16)     0         
_________________________________________________________________
conv3d_5 (Conv3D)            (None, 1, 47, 47, 32)     4640      
_________________________________________________________________
max_pooling3d_4 (MaxPooling3 (None, 1, 23, 23, 32)     0         
_________________________________________________________________
batch_normalization_2 (Batch (None, 1, 23, 23, 32)     128       
_________________________________________________________________
flatten_2 (Flatten)          (None, 16928)             0         
_________________________________________________________________
dense_3 (Dense)              (None, 32)                541728    
_________________________________________________________________
dropout_3 (Dropout)          (None, 32)                0         
_________________________________________________________________
dense_4 (Dense)              (None, 16)                528       
_________________________________________________________________
dropout_4 (Dropout)          (None, 16)                0         
_________________________________________________________________
dense_5 (Dense)              (None, 2)                 34        
=================================================================
Total params: 548,370
Trainable params: 548,306
Non-trainable params: 64
_________________________________________________________________
None
Horus completed the predictions in 7.44s (396.14ps)
[[1451   31]
 [  58 1406]]
Accuracy: 96.98%
